# Ultralytics YOLO 🚀, AGPL-3.0 license
# RT-DETR-l object detection model with P3-P5 outputs. For details see https://docs.ultralytics.com/models/rtdetr

# Parameters
nc: 1  # number of classes
scales: # model compound scaling constants, i.e. 'model=yolov8n-cls.yaml' will call yolov8-cls.yaml with scale 'n'
  # [depth, width, max_channels]
  l: [1.00, 1.00, 1024]

backbone:
  # [from, repeats, module, args]
  - [-1, 1, starnet_s050, []]  # 4

head:
  - [-1, 1, Conv, [256, 1, 1, None, 1, 1, False]] # 5 input_proj.2
  - [-1, 1, AIFI, [1024, 8]]
  - [-1, 1, Conv, [256, 1, 1]] # 7, Y5, lateral_convs.0

  - [2, 1, Conv, [256]] # 8-P3/8
  - [3, 1, Conv, [256]] # 9-P4/16
  - [7, 1, Conv, [256]] # 10-P5/32

  - [[9, -1], 1, FreqFusion, []] # cat backbone P4
  - [-1, 3, RepC3, [256]] # 12, fpn_blocks.0
  - [-1, 1, Conv, [256, 1, 1]] # 13, Y4, lateral_convs.1

  - [[8, -1], 1, FreqFusion, []] # cat backbone P3
  - [-1, 3, RepC3, [256]] # X3 (15), fpn_blocks.1

  - [-1, 1, Conv, [256, 3, 2]] # 16, downsample_convs.0
  - [[-1, 13], 1, Concat, [1]] # cat Y4
  - [-1, 3, RepC3, [256]] # F4 (18), pan_blocks.0

  - [-1, 1, Conv, [256, 3, 2]] # 19, downsample_convs.1
  - [[-1, 7], 1, Concat, [1]] # cat Y5
  - [-1, 3, RepC3, [256]] # F5 (21), pan_blocks.1

  - [[15, 18, 21], 1, RTDETRDecoder, [nc]] # Detect(P3, P4, P5)

